…
model.add(Dropout(0.2))
model.add(Dense(3, activation='sigmoid'))
model.compile(loss='binary_crossentropy',optimizer='adam', 
                           metrics=['accuracy'])
print(model.summary())


history = model.fit(padded_sequence_train, y_train,validation_data=(padded_sequence_test, y_val),epochs=20,batch_size=70)


</code></pre>
<p>The model summery is as below:</p>
<pre><code>_________________________________________________________________
Layer (type)                 Output Shape              Param #   
=================================================================
embedding_17 (Embedding)     (None, 300, 50)           881900    
_________________________________________________________________
spatial_dropout1d_16 (Spatia (None, 300, 50)           0         
_________________________________________________________________
lstm_17 (LSTM)               (None, 30)                9720      
_________________________________________________________________
dropout_16 (Dropout)         (None, 30)                0         
_________________________________________________________________
dense_17 (Dense)             (None, 3)                 93        
=================================================================
Total params: 891,713
Trainable params: 891,713
Non-trainable params: 0
_________________________________________________________________
None

</code></pre>
<p>Also when I fit model the result is as below:</p>
<pre><code>
Train on 15663 samples, validate on 3916 samples
Epoch 1/30
15663/15663 [==============================] - 92s 6ms/step - loss: 0.6338 - acc: 0.6667 - val_loss: 0.6318 - val_acc: 0.6667
…
print(""--------------------------------------------------------------"")
print(len(vocab))
print(""--------------------------------------------------------------"")
</code></pre>

<p>I am getting following output:</p>

<pre><code>&lt;class 'scipy.sparse.csr.csr_matrix'&gt;
--------------------------------------------------------------
(770, 10252)
--------------------------------------------------------------
[[0 0 0 ... 0 0 0]
 [0 0 0 ... 0 0 0]
 [0 0 0 ... 0 0 0]
 ...
 [0 0 0 ... 0 0 0]
 [0 0 0 ... 0 0 0]
 [0 0 0 ... 0 0 0]]
--------------------------------------------------------------
(1, 10252)
--------------------------------------------------------------
  (0, 4819) 1
  (0, 2758) 1
  (0, 3854) 2
  (0, 3987) 1
  (0, 1188) 1
  (0, 3233) 1
  (0, 981)  1
  (0, 10065)    1
  (0, 9811) 1
  (0, 8932) 1
  (0, 9599) 1
  (0, 10150)    1
  (0, 7716) 1
  (0, 10045)    1
  (0, 5783) 1
  (0, 5500) 1
  (0, 5455) 1
  (0, 3234) 1
  (0, 7107) 1
  (0, 6504) 1
  (0, 3235) 1
  (0, 1625) 1
  (0, 3591) 1
  (0, 6525) 1
  (0, 365)  1
  : :
  (0, 5527) 1
  (0, 9972) 1
  (0, 4526) 3
  (0, 3592) 4
  (0, 10214)    1
  (0, 895)  1
  (0, 10062)    2
  (0, 10210)    1
  (0, 1246) 1
  (0, 9224) 2
  (0, 4924) 1
  (0, 6336) 2
  (0, 9180) 8
  (0, 6366) 2
  (0, 414)  12
  (0, 1307) 1
  (0, 9309) 1
  (0, 9177) 1
  (0, 3166) 1
  (0, 396)  1
  (0, 9303) 7
  (0, 320)  5
  (0, 4782) 2
  (0, 10088)    3
  (0, 4481) 3
--------------------------------------------------------------
[[0 0 0 ... 0 0 0]]
--------------------------------------------------------------
10252
--------------------------------------------------------------
</code></pre>

<p>It's clear that there are 770 documents and 10,252 unique words in the corpus. My confusion is why is this line <code>print(final_counts[769])</code> in my code printing this:</p>

<pre><code>(0, 4819) 1
  (0, 2758) 1
  (0, 3854) 2
  (0, 3987) 1
  (0, 1188) 1
  (0, 3233) 1
  (0, 981)  1
  (0, 10065)    1
  (0, 9811) 1
  (0, 8932) 1
  (0, 9599) 1
  (0, 10150)    1
  (0, 7716) 1
  (0, 10045)    1
  (0, 5783) 1
  (0, 5500) 1
  (0, 5455) 1
  (0, 3234) 1
  (0, 7107) 1
  (0, 6504) 1
  (0, 3235) 1
  (0, 1625) 1
  (0, 3591) 1
  (0, 6525) 1
  (0, 365)  1
  : :
  (0, 5527) 1
  (0, 9972) 1
  (0, 4526) 3
  (0, 3592) 4
  (0, 10214)    1
  (0, 895)  1
  (0, 10062)    2
  (0, 10210)    1
  (0, 1246) 1
  (0, 9224) 2
  (0, 4924) 1
  (0, 6336) 2
  (0, 9180) 8
  (0, 6366) 2
  (0, 414)  12
  (0, 1307) 1
  (0, 9309) 1
  (0, 9177) 1
  (0, 3166) 1
  (0, 396)  1
  (0, 9303) 7
  (0, 320)  5
  (0, 4782) 2
  (0, 10088)    3
  (0, 4481) 3
</code></pre>

<p>The first index is the document index. I am printing the vector of 769th document (started from 0). So the first index should have been 769 instead of 0, like, <code>(769, 4819)    1</code> . Why isn't it so?</p>
",Text Classification / Sentiment Analysis,text classification bag word python bag word show document index written following code produce bag word getting following output clear document unique word corpus confusion line code printing first index document index printing vector th document started first index instead like
R - How to apply terms from training document-term-matrix (dtm) to test dtm (both unigrams and bigrams)?,"<p>I am training a simple text classification method on 1,000 training examples and would like to make predictions on unseen test data (about 500,000 observations).</p>
…
