…
  [0.69230769]
  [0.76923077]
  [0.41025641]
  [0.79487179]]]
index =  1
result =   

==================
x[:10] :  [[[0.71794872]
  [0.69230769]
  [0.66666667]
  [0.02564103]
  [0.8974359 ]
  [0.69230769]
  [0.76923077]
  [0.41025641]
  [0.79487179]
  [0.17948718]]]
index =  1
result =   

Done.
[/output]
</code></pre>
<pre><code>model.summary()

Model: &quot;LSTM_Model&quot;
_________________________________________________________________
 Layer (type)                Output Shape              Param #   
=================================================================
 embedding (Embedding)       (None, 100, 50)           1950      
                                                                 
 conv1d (Conv1D)             (None, 96, 128)           32128     
                                                                 
 max_pooling1d (MaxPooling1  (None, 24, 128)           0         
 D)                                                              
                                                                 
 lstm (LSTM)                 (None, 24, 256)           394240    
                                                                 
 dropout (Dropout)           (None, 24, 256)           0         
                                                                 
 lstm_1 (LSTM)               (None, 256)               525312    
                                                                 
 dropout_1 (Dropout)         (None, 256)               0         
                                                                 
 dense (Dense)               (None, 39)                10023     
                                                                 
=================================================================
Total params: 963653 (3.68 MB)
Trainable params: 963653 (3.68 MB)
Non-trainable params: 0 (0.00 Byte)
_________________________________________________________________


  [1]: https://i.sstatic.net/QSWz3.jpg
  [2]: https://s3.amazonaws.com/text-datasets/nietzsche.txt
…
