…
WARNING:tensorflow:Layer lstm_3 will not use cuDNN kernels since it doesn't meet the criteria. It will use a generic GPU kernel as fallback when running on GPU.
(None, 20) (100, 20, 10000)
Model: &quot;model_1&quot;
__________________________________________________________________________________________________
 Layer (type)                   Output Shape         Param #     Connected to                     
==================================================================================================
 input_2 (InputLayer)           [(None, 20)]         0           []                               
                                                                                                  
 embedding_1 (Embedding)        (None, 20, 100)      1000000     ['input_2[0][0]']                
                                                                                                  
 bidirectional_1 (Bidirectional  (None, 32)          14976       ['embedding_1[0][0]']            
 )                                                                                                
                                                                                                  
 dense_3 (Dense)                (None, 32)           1056        ['bidirectional_1[0][0]']        
                                                                                                  
 dense_4 (Dense)                (None, 32)           1056        ['bidirectional_1[0][0]']        
                                                                                                  
 lambda_1 (Lambda)              (100, 32)            0           ['dense_3[0][0]',                
                                                                  'dense_4[0][0]']                
                                                                                                  
 repeat_vector_1 (RepeatVector)  (100, 20, 32)       0           ['lambda_1[0][0]']               
                                                                                                  
 lstm_3 (LSTM)                  (100, 20, 16)        3136        ['repeat_vector_1[0][0]']        
                                                                                                  
 dense_5 (Dense)                (100, 20, 10000)     170000      ['lstm_3[0][0]']                 
                                                                                                  
 custom_variational_layer_1 (Cu  (None, 20)          0           ['input_2[0][0]',                
 stomVariationalLayer)                                            'dense_5[0][0]']                
                                                                                                  
==================================================================================================
Total params: 1,190,224
Trainable params: 190,224
Non-trainable params: 1,000,000
…
Layer (type)                    Output Shape         Param #     Connected to                     
==================================================================================================
input_5 (InputLayer)            [(None, 124)]        0                                            
__________________________________________________________________________________________________
input_6 (InputLayer)            [(None, 124)]        0                                            
__________________________________________________________________________________________________
embedding_4 (Embedding)         (None, 124, 31)      3323696     input_5[0][0]                    
__________________________________________________________________________________________________
embedding_5 (Embedding)         (None, 124, 31)      3323696     input_6[0][0]                    
__________________________________________________________________________________________________
lstm_4 (LSTM)                   (None, 256)          294912      embedding_4[0][0]                
__________________________________________________________________________________________________
lstm_5 (LSTM)                   (None, 256)          294912      embedding_5[0][0]                
__________________________________________________________________________________________________
concatenate_2 (Concatenate)     (None, 512)          0           lstm_4[0][0]                     
                                                                 lstm_5[0][0]                     
__________________________________________________________________________________________________
dense_4 (Dense)                 (None, 128)          65664       concatenate_2[0][0]              
__________________________________________________________________________________________________
dense_5 (Dense)                 (None, 1)            129         dense_4[0][0]                    
==================================================================================================
Total params: 7,303,009
Trainable params: 7,303,009
Non-trainable params: 0
</code></pre>
<pre><code>model_lstm.fit([train_inputs[0], train_inputs[1]], Y_train,
                epochs=100, validation_data=([val_inputs[0], val_inputs[1]], Y_val),
                callbacks=[callbacks.EarlyStopping(monitor='val_f1',
…
model.add(Activation('tanh'))
model.add(Dropout(0.5))
model.add(Bidirectional(LSTM(32)))
model.add(BatchNormalization())
model.add(Activation('tanh'))
model.add(Dropout(0.5))
model.add(Dense(2, activation='sigmoid'))
model.summary()
</code></pre>
<p>Here <code>max_words = 2000</code> and <code>max_len=300</code></p>
<p>Here is the model summary</p>
<pre><code>Model: &quot;sequential_3&quot;
_________________________________________________________________
Layer (type)                 Output Shape              Param #   
=================================================================
embedding_3 (Embedding)      (None, 300, 30)           60000     
_________________________________________________________________
batch_normalization_5 (Batch (None, 300, 30)           120       
_________________________________________________________________
activation_5 (Activation)    (None, 300, 30)           0         
_________________________________________________________________
dropout_3 (Dropout)          (None, 300, 30)           0         
_________________________________________________________________
bidirectional_3 (Bidirection (None, 64)                16128     
_________________________________________________________________
batch_normalization_6 (Batch (None, 64)                256       
_________________________________________________________________
activation_6 (Activation)    (None, 64)                0         
_________________________________________________________________
dropout_4 (Dropout)          (None, 64)                0         
_________________________________________________________________
dense_3 (Dense)              (None, 2)                 130       
=================================================================
Total params: 76,634
Trainable params: 76,446
Non-trainable params: 188
</code></pre>
<p>And here is the code, the size of my dataset is 20k, with 10% in testing.</p>
<pre><code>model.compile(loss='sparse_categorical_crossentropy', metrics=['accuracy'], optimizer = 'adam')
history = model.fit(sequences_matrix, Y_train, batch_size=256, epochs=50, validation_split=0.1)
…
    history = model.fit(x_train, y_train, batch_size=batch_size, epochs=num_epochs, validation_split=0.2)

    return history
</code></pre>

<pre><code>kernel_sizes  = [2,6]
num_filters   = 100
dropout       = 0.6
num_hidden    = 270
callbacks     = callbacks_list
num_epochs    = 15
batch_size = 64
model = make_model(kernel_sizes, num_filters, dropout, num_hidden)
print(model.summary())
history = fit_model(model, kernel_sizes, num_epochs, batch_size, x_train, y_train)
</code></pre>

<p>Model: ""model_1""</p>

<hr>

<h1>Layer (type)                    Output Shape         Param #     Connected to</h1>

<p>embedding_1_input (InputLayer)  (None, 179)          0                                            </p>

<hr>

<p>embedding_2_input (InputLayer)  (None, 179)          0                                            </p>

<hr>

<p>embedding_1 (Embedding)         (None, 179, 300)     2729400     embedding_1_input[0][0]          </p>

<hr>

<p>embedding_2 (Embedding)         (None, 179, 300)     2729400     embedding_2_input[0][0]          </p>

<hr>

<p>conv1d_1 (Conv1D)               (None, 179, 100)     60100       embedding_1[0][0]                </p>

<hr>

<p>conv1d_2 (Conv1D)               (None, 179, 100)     180100      embedding_2[0][0]                </p>

<hr>

<p>global_max_pooling1d_1 (GlobalM (None, 100)          0           conv1d_1[0][0]                   </p>

<hr>

<p>global_max_pooling1d_2 (GlobalM (None, 100)          0           conv1d_2[0][0]                   </p>

<hr>

<p>concatenate_1 (Concatenate)     (None, 200)          0           global_max_pooling1d_1[0][0]<br>
                                                                 global_max_pooling1d_2[0][0]     </p>

<hr>

<p>dropout_1 (Dropout)             (None, 200)          0           concatenate_1[0][0]              </p>

<hr>

<p>dense_1 (Dense)                 (None, 270)          54270       dropout_1[0][0]                  </p>

<hr>

<p>dropout_2 (Dropout)             (None, 270)          0           dense_1[0][0]                    </p>

<hr>

<p>dense_2 (Dense)                 (None, 7)            1897        dropout_2[0][0]                  </p>

<hr>

<h1>activation_1 (Activation)       (None, 7)            0           dense_2[0][0]</h1>

<p>Total params: 5,755,167
Trainable params: 5,755,167
Non-trainable params: 0</p>

<hr>

<p><a href=""https://i.sstatic.net/v1GeS.png"" rel=""nofollow noreferrer"">Training and Validation results for CNN</a></p>

<p><a href=""https://i.sstatic.net/e88si.png"" rel=""nofollow noreferrer"">CNN confusion matrix</a></p>

<hr>

<p>RNN Implementation</p>

<pre><code>def make_model(lstm_units, dropout, hidden_units):
…
    model.add(Dense(7,activation='softmax', kernel_initializer=""uniform""))
    model.add(Activation('sigmoid'))

    model.compile(loss='categorical_crossentropy',optimizer='rmsprop',metrics=['acc'])

    return model
</code></pre>

<pre><code>lstm_units = 120
dropout = 0.5
hidden_units = 550
callbacks = [tensorboard, early]
num_epochs = 20
batch_size = 60

model = make_model(lstm_units, dropout, hidden_units)
print(model.summary())
history = fit_model(model, num_epochs, batch_size, x_train, y_train)
</code></pre>

<p>Model: ""sequential_6""</p>

<hr>

<h1>Layer (type)                 Output Shape              Param #</h1>

<p>embedding_6 (Embedding)      (None, 179, 300)          2729400   </p>

<hr>

<p>lstm_8 (LSTM)                (None, 120)               202080    </p>

<hr>

<p>dropout_5 (Dropout)          (None, 120)               0         </p>

<hr>

<p>dense_6 (Dense)              (None, 550)               66550     </p>

<hr>

<p>dropout_6 (Dropout)          (None, 550)               0         </p>

<hr>

<p>dense_7 (Dense)              (None, 7)                 3857      </p>

<hr>

<h1>activation_3 (Activation)    (None, 7)                 0</h1>

<p>Total params: 3,001,887
Trainable params: 272,487
Non-trainable params: 2,729,400</p>

<hr>

<p><a href=""https://i.sstatic.net/d7XIF.png"" rel=""nofollow noreferrer"">RNN training and validation scores</a></p>

<p><a href=""https://i.sstatic.net/l2CQe.png"" rel=""nofollow noreferrer"">RNN confusion matrix</a></p>

<hr>

<p>CNN-RNN implementation</p>

<pre><code>def make_model(kernel_sizes, num_filters, dropout, hidden_units, lstm_units):
…
    model.compile(loss='categorical_crossentropy',optimizer='rmsprop',metrics=['acc'])

    return model
</code></pre>

<pre><code>kernel_sizes  = [2,3,6]
num_filters   = 100
dropout       = 0.6
num_hidden    = 270
lstm_units = 80
callbacks     = [tensorboard, early]
num_epochs    = 20
batch_size = 64

model = make_model(kernel_sizes, num_filters, dropout, num_hidden, lstm_units)
print(model.summary())
history = fit_model(model, kernel_sizes, num_epochs, batch_size, x_train, y_train)
</code></pre>

<p>Model: ""model_2""</p>

<hr>

<h1>Layer (type)                    Output Shape         Param #     Connected to</h1>

<p>embedding_8_input (InputLayer)  (None, 179)          0                                            </p>

<hr>

<p>embedding_9_input (InputLayer)  (None, 179)          0                                            </p>

<hr>

<p>embedding_10_input (InputLayer) (None, 179)          0                                            </p>

<hr>

<p>embedding_8 (Embedding)         (None, 179, 300)     2729400     embedding_8_input[0][0]          </p>

<hr>

<p>embedding_9 (Embedding)         (None, 179, 300)     2729400     embedding_9_input[0][0]          </p>

<hr>

<p>embedding_10 (Embedding)        (None, 179, 300)     2729400     embedding_10_input[0][0]         </p>

<hr>

<p>conv1d_8 (Conv1D)               (None, 179, 100)     60100       embedding_8[0][0]                </p>

<hr>

<p>conv1d_9 (Conv1D)               (None, 179, 100)     90100       embedding_9[0][0]                </p>

<hr>

<p>conv1d_10 (Conv1D)              (None, 179, 100)     180100      embedding_10[0][0]               </p>

<hr>

<p>max_pooling1d_7 (MaxPooling1D)  (None, 89, 100)      0           conv1d_8[0][0]                   </p>

<hr>

<p>max_pooling1d_8 (MaxPooling1D)  (None, 89, 100)      0           conv1d_9[0][0]                   </p>

<hr>

<p>max_pooling1d_9 (MaxPooling1D)  (None, 89, 100)      0           conv1d_10[0][0]                  </p>

<hr>

<p>dropout_9 (Dropout)             (None, 89, 100)      0           max_pooling1d_7[0][0]            </p>

<hr>

<p>dropout_10 (Dropout)            (None, 89, 100)      0           max_pooling1d_8[0][0]            </p>

<hr>

<p>dropout_11 (Dropout)            (None, 89, 100)      0           max_pooling1d_9[0][0]            </p>

<hr>

<p>lstm_2 (LSTM)                   (None, 80)           57920       dropout_9[0][0]                  </p>

<hr>

<p>lstm_3 (LSTM)                   (None, 80)           57920       dropout_10[0][0]                 </p>

<hr>

<p>lstm_4 (LSTM)                   (None, 80)           57920       dropout_11[0][0]                 </p>

<hr>

<p>concatenate_3 (Concatenate)     (None, 240)          0           lstm_2[0][0]<br>
                                                                 lstm_3[0][0]<br>
                                                                 lstm_4[0][0]                     </p>

<hr>

<p>dropout_12 (Dropout)            (None, 240)          0           concatenate_3[0][0]              </p>

<hr>

<p>dense_3 (Dense)                 (None, 270)          65070       dropout_12[0][0]                 </p>

<hr>

<p>dropout_13 (Dropout)            (None, 270)          0           dense_3[0][0]                    </p>

<hr>

<p>dense_4 (Dense)                 (None, 7)            1897        dropout_13[0][0]                 </p>

<hr>

<h1>activation_2 (Activation)       (None, 7)            0           dense_4[0][0]</h1>

<p>Total params: 8,759,227
Trainable params: 8,759,227
Non-trainable params: 0</p>

<hr>

<p><a href=""https://i.sstatic.net/fFTYk.png"" rel=""nofollow noreferrer"">CNN-RNN training and validation scores</a>
<a href=""https://i.sstatic.net/nUet2.png"" rel=""nofollow noreferrer"">CNN-RNN confusion matrix</a></p>

<p>I understand there is no magic formula to neural networks and no one size fits all approach, I am just looking for some guidance in the areas which I may have made mistakes in when implementing the CNN-RNN and RNN.</p>
…
    model.add(Conv1D(filters=32, kernel_size=3, padding='same', activation='relu'))
    model.add(MaxPooling1D(pool_size=2))
    model.add(Conv1D(filters=32, kernel_size=3, padding='same', activation='relu'))
    model.add(MaxPooling1D(pool_size=2))    
    model.add(LSTM(100, dropout=0.2))
    model.add(Dense(num_classes, activation='sigmoid'))
    model.compile(loss='binary_crossentropy', optimizer='adam', metrics=['accuracy'])
print(model.summary())
Layer (type)                 Output Shape              Param #   
=================================================================
embedding_2 (Embedding)      (None, 30, 100)           100000    
_________________________________________________________________
conv1d_3 (Conv1D)            (None, 30, 32)            9632      
_________________________________________________________________
max_pooling1d_3 (MaxPooling1 (None, 15, 32)            0         
_________________________________________________________________
conv1d_4 (Conv1D)            (None, 15, 32)            3104      
_________________________________________________________________
max_pooling1d_4 (MaxPooling1 (None, 7, 32)             0         
_________________________________________________________________
lstm_2 (LSTM)                (None, 100)               53200     
_________________________________________________________________
dense_2 (Dense)              (None, 2)                 202       
=================================================================
Total params: 166,138
Trainable params: 166,138
Non-trainable params: 0
_________________________________________________________________
None
</code></pre>

<p>Here my epochs:</p>

<pre><code>model_history = model.fit(X_train, y_train, validation_data=(X_test, y_test), epochs=epochs, batch_size=batch_size, verbose=1)

Train on 2771 samples, validate on 693 samples
…
<p><strong>Vectorizing function</strong></p>

<pre><code>def fit(des, titles, sal, clf, alpha):
    tRidge = time()
    vect = TfidfVectorizer(min_df=1,ngram_range=(1,3),max_features=24000000)
    vect2 = TfidfVectorizer(min_df=1,ngram_range=(1,3),max_features=24000000)
    des = vect.fit_transform(des)
    titles = vect2.fit_transform(titles)
    merged = hstack((des, titles))
    print des, ""\n\n\n\n""
    print titles, ""\n\n\n\n""
    print merged

    rr = linear_model.Ridge(alpha= alpha)
    rr.fit(merged,sals)

    return vect, vect2, rr 
</code></pre>

<p><strong>Result</strong></p>

<pre><code>(0, 2991)   0.0923069427531
(0, 2989)   0.156938669001
(0, 2988)   0.183108029528
(0, 2984)   0.183108029528
(0, 2983)   0.0923069427531
(0, 2982)   0.0923069427531
(0, 2981)   0.0923069427531
(0, 2976)   0.0923069427531
(0, 2974)   0.0784693345005
(0, 2973)   0.1373027904
(0, 2968)   0.0923069427531
(0, 2967)   0.0923069427531
(0, 2966)   0.183108029528
(0, 2859)   0.0610360098426
(0, 2858)   0.0610360098426
(0, 2855)   0.0548137869472
(0, 2811)   0.0923069427531
(0, 2810)   0.0610360098426
(0, 2807)   0.0548137869472
(0, 2671)   0.0923069427531
(0, 2670)   0.0923069427531
(0, 2663)   0.0784693345005
(0, 2662)   0.0784693345005
(0, 2659)   0.0819523573892
(0, 2642)   0.0923069427531
:   :
(9, 225)    0.0518713890037
(9, 208)    0.105028746631
(9, 155)    0.0518713890037
(9, 154)    0.0518713890037
(9, 153)    0.0518713890037
(9, 152)    0.0518713890037
(9, 151)    0.0518713890037
(9, 149)    0.0440954196221
(9, 140)    0.0835380774247
(9, 135)    0.0518713890037
(9, 134)    0.0518713890037
(9, 132)    0.0881908392442
(9, 131)    0.0771565630894
(9, 122)    0.0518713890037
(9, 121)    0.0518713890037
(9, 118)    0.0518713890037
(9, 117)    0.0518713890037
(9, 116)    0.0771565630894
(9, 25) 0.0518713890037
(9, 8)  0.0518713890037
(9, 7)  0.0440954196221
(9, 6)  0.0440954196221
(9, 5)  0.0518713890037
(9, 4)  0.0518713890037
(9, 3)  0.0518713890037 




(0, 69) 0.42208707303
(0, 68) 0.42208707303
(0, 27) 0.42208707303
(0, 26) 0.42208707303
(0, 24) 0.379058050386
(0, 0)  0.379058050386
(1, 62) 0.42435658025
(1, 61) 0.42435658025
(1, 60) 0.42435658025
(1, 28) 0.42435658025
(1, 23) 0.42435658025
(1, 22) 0.315606501824
(2, 59) 0.346009923908
(2, 58) 0.346009923908
(2, 44) 0.346009923908
(2, 43) 0.346009923908
(2, 42) 0.346009923908
(2, 7)  0.346009923908
(2, 6)  0.346009923908
(2, 5)  0.346009923908
(2, 0)  0.205467906151
(3, 70) 0.343926205461
(3, 69) 0.227413915309
(3, 68) 0.227413915309
(3, 41) 0.343926205461
:   :
(7, 16) 0.231189334057
(7, 12) 0.271958221129
(7, 11) 0.271958221129
(7, 10) 0.271958221129
(8, 76) 0.265672282889
(8, 75) 0.265672282889
(8, 74) 0.265672282889
(8, 73) 0.265672282889
(8, 72) 0.265672282889
(8, 53) 0.265672282889
(8, 52) 0.22584571227
(8, 51) 0.22584571227
(8, 35) 0.265672282889
(8, 18) 0.265672282889
(8, 17) 0.265672282889
(8, 16) 0.22584571227
(8, 15) 0.265672282889
(8, 14) 0.265672282889
(8, 13) 0.265672282889
(9, 65) 0.435367791014
(9, 64) 0.435367791014
(9, 63) 0.370102397554
(9, 22) 0.323795863959
(9, 9)  0.435367791014
(9, 8)  0.435367791014 




(0, 2991)   0.0923069427531
(0, 2989)   0.156938669001
(0, 2988)   0.183108029528
(0, 2984)   0.183108029528
(0, 2983)   0.0923069427531
(0, 2982)   0.0923069427531
(0, 2981)   0.0923069427531
(0, 2976)   0.0923069427531
(0, 2974)   0.0784693345005
(0, 2973)   0.1373027904
(0, 2968)   0.0923069427531
(0, 2967)   0.0923069427531
(0, 2966)   0.183108029528
(0, 2859)   0.0610360098426
(0, 2858)   0.0610360098426
(0, 2855)   0.0548137869472
(0, 2811)   0.0923069427531
(0, 2810)   0.0610360098426
(0, 2807)   0.0548137869472
(0, 2671)   0.0923069427531
(0, 2670)   0.0923069427531
(0, 2663)   0.0784693345005
(0, 2662)   0.0784693345005
(0, 2659)   0.0819523573892
(0, 2642)   0.0923069427531
:   :
(7, 3669)   0.231189334057
(7, 3665)   0.271958221129
(7, 3664)   0.271958221129
(7, 3663)   0.271958221129
(8, 3729)   0.265672282889
(8, 3728)   0.265672282889
(8, 3727)   0.265672282889
(8, 3726)   0.265672282889
(8, 3725)   0.265672282889
(8, 3706)   0.265672282889
(8, 3705)   0.22584571227
(8, 3704)   0.22584571227
(8, 3688)   0.265672282889
(8, 3671)   0.265672282889
(8, 3670)   0.265672282889
(8, 3669)   0.22584571227
(8, 3668)   0.265672282889
(8, 3667)   0.265672282889
(8, 3666)   0.265672282889
(9, 3718)   0.435367791014
(9, 3717)   0.435367791014
(9, 3716)   0.370102397554
(9, 3675)   0.323795863959
(9, 3662)   0.435367791014
(9, 3661)   0.435367791014
</code></pre>
",Training and Model Evaluation,python hstack used machine learning trying understand python code try predict price based ad posting fitting text vectorizers function doe ad description ad title question reason dont see difference printing appears used training data instead passing seperately doe work vectorizing function result
Why getting different results with MALLET
…
