…
lstm_model.add(Embedding(input_dim = 9000, output_dim = 128,embeddings_initializer= 'uniform'))
lstm_model.add(LSTM(64, return_sequences = True, recurrent_dropout = 0.25, dropout = 0.25))
lstm_model.add(LSTM(64))
lstm_model.add(Dense(32, activation='relu'))
lstm_model.add(Dense(1, activation = 'softmax'))
lstm_model.compile(loss='binary_crossentropy', optimizer='adam', metrics=['accuracy'])
lstm_model.build()
lstm_model.summary()
</code></pre>
<p>The model seems correct:</p>
<p>┃ Layer (type)                    ┃ Output Shape           ┃       Param # ┃
┡━━━━━━━━━━━━━━━━━━━━━━━━━━━━━━━━━╇━━━━━━━━━━━━━━━━━━━━━━━━╇━━━━━━━━━━━━━━━┩
│ text_vectorization_25           │ (None, 50)             │             0 │
│ (TextVectorization)             │                        │               │
├─────────────────────────────────┼────────────────────────┼───────────────┤
│ embedding_26 (Embedding)        │ (None, 50, 128)        │     1,152,000 │
├─────────────────────────────────┼────────────────────────┼───────────────┤
│ lstm_49 (LSTM)                  │ (None, 50, 64)         │        49,408 │
├─────────────────────────────────┼────────────────────────┼───────────────┤
│ lstm_50 (LSTM)                  │ (None, 64)             │        33,024 │
├─────────────────────────────────┼────────────────────────┼───────────────┤
│ dense_49 (Dense)                │ (None, 32)             │         2,080 │
├─────────────────────────────────┼────────────────────────┼───────────────┤
│ dense_50 (Dense)                │ (None, 1)              │            33 │</p>
<p>Call model fit:</p>
<pre><code>lstm_model.fit(text_data, labels, epochs=10)
</code></pre>
<p>Error:</p>
<p>ValueError: Unrecognized data type: x=['The movie was fantastic! I really enjoyed it and would watch it again.', &quot;I didn't like the movie. The plot had too many holes.&quot;, &quot;One of the best movies I've seen this year. Highly recommended!&quot;, &quot;The acting was poor and the storyline was boring. I wouldn't recommend it.&quot;] (of type &lt;class 'list'&gt;)</p>
…
<p>I used <strong>Keras</strong> to devise several alternatives of <strong>Convolutional Neural Networks</strong> and validate which one best fit my problem.</p>

<p>I'm a newbie in Python and Keras and I decided to start with simpler solutions in order to test which changes improve my metrics (accuracy, precision, recall, f1 and auc-roc). The first simplification was regarding input data: I decided to ignore contexts to create a Sequential model of Keras:</p>

<pre><code>_________________________________________________________________
Layer (type)                 Output Shape              Param #   
=================================================================
input_1 (InputLayer)         (None, 500)               0         
_________________________________________________________________
masking_1 (Masking)          (None, 500)               0         
_________________________________________________________________
embedding_1 (Embedding)      (None, 500, 100)          64025600  
_________________________________________________________________
conv1d_1 (Conv1D)            (None, 497, 128)          51328     
_________________________________________________________________
average_pooling1d_1 (Average (None, 62, 128)           0         
_________________________________________________________________
dropout_1 (Dropout)          (None, 62, 128)           0         
_________________________________________________________________
conv1d_2 (Conv1D)            (None, 61, 256)           65792     
_________________________________________________________________
dropout_2 (Dropout)          (None, 61, 256)           0         
_________________________________________________________________
conv1d_3 (Conv1D)            (None, 54, 32)            65568     
_________________________________________________________________
global_max_pooling1d_1 (Glob (None, 32)                0         
_________________________________________________________________
dense_1 (Dense)              (None, 16)                528       
_________________________________________________________________
dropout_3 (Dropout)          (None, 16)                0         
_________________________________________________________________
dense_2 (Dense)              (None, 2)                 34        
=================================================================
</code></pre>

<p>As you can see, I use a fixed size of inputs so I applied a padding preprocessing. I also used an embedding layer with a Word2Vec model.</p>

<p>This model returns the following results:</p>

<pre><code>P       0.875457875
R       0.878676471
F1      0.87706422
AUC-ROC 0.906102654
</code></pre>

<p>I wished to implement how to select a subarray of input data inside my CNN by means of Lambda layers. I use the following definition of my Lambda layer:</p>

<pre><code>Lambda(lambda x: x[:, 1], output_shape=(500,))(input)
</code></pre>

<p>And this is the summary of my new CNN (as you can see it's almost the same than the prior):</p>

<pre><code>_________________________________________________________________
Layer (type)                 Output Shape              Param #   
=================================================================
input_1 (InputLayer)         (None, 3, 500)            0         
_________________________________________________________________
lambda_1 (Lambda)            (None, 500)               0         
_________________________________________________________________
masking_1 (Masking)          (None, 500)               0         
_________________________________________________________________
embedding_1 (Embedding)      (None, 500, 100)          64025600  
_________________________________________________________________
conv1d_1 (Conv1D)            (None, 497, 128)          51328     
_________________________________________________________________
average_pooling1d_1 (Average (None, 62, 128)           0         
_________________________________________________________________
dropout_1 (Dropout)          (None, 62, 128)           0         
_________________________________________________________________
conv1d_2 (Conv1D)            (None, 61, 256)           65792     
_________________________________________________________________
dropout_2 (Dropout)          (None, 61, 256)           0         
_________________________________________________________________
conv1d_3 (Conv1D)            (None, 54, 32)            65568     
_________________________________________________________________
global_max_pooling1d_1 (Glob (None, 32)                0         
_________________________________________________________________
dense_1 (Dense)              (None, 16)                528       
_________________________________________________________________
dropout_3 (Dropout)          (None, 16)                0         
_________________________________________________________________
dense_2 (Dense)              (None, 2)                 34        
=================================================================
</code></pre>

<p>But the results were disgusting because accuracy stops at <strong>60%</strong> and obviously, precision, recall and f1 were too low (&lt; 0.10) regarding the first model results.</p>

<p>I don't know what's happening and I don't know if these networks are more different that I thought.</p>

<p>Any clue regarding this issue?</p>
…
texts = [x.lower() for x in texts]  # lower
texts = [''.join(c for c in x if c not in string.punctuation) for x in texts]  # remove punctuation
texts = [''.join(c for c in x if c not in '0123456789') for x in texts]  # remove numbers
texts = [' '.join(x.split()) for x in texts]  # trim extra whitespace


def tokenizer(text):
    words = nltk.word_tokenize(text)
    return words


tfidf = TfidfVectorizer(tokenizer=tokenizer, stop_words='english', max_features=max_features)
sparse_tfidf_texts = tfidf.fit_transform(texts)
print(sparse_tfidf_texts)
</code></pre>
<p>And the output is:</p>
<blockquote>
<p>(0, 630)  0.37172623140154337   (0, 160)  0.36805562944957004   (0,
38)   0.3613966215413548   (0, 545)   0.2561101665717327   (0,
326)  0.2645280991765623   (0, 967)   0.3277447602873963   (0,
421)  0.3896274380321477   (0, 227)   0.28102915589024796   (0,
323)  0.22032541100275282   (0, 922)  0.2709848154866997   (1,
577)  0.4007895093299793   (1, 425)   0.5970064521899725   (1,
943)  0.6310763941180291   (1, 878)   0.29102173465492637   (2,
282)  0.1771481430848552   (2, 243)   0.5517018054305785   (2,
955)  0.2920174942032025   (2, 138)   0.30143666813167863   (2,
946)  0.2269933441326121   (2, 165)   0.3051095293405041   (2,
268)  0.2820392223588522   (2, 780)   0.24119626642264894   (2,
823)  0.1890454397278538   (2, 674)   0.256251970757827   (2,
874)  0.19343834015314287   : :   (5569, 648) 0.24171652492226922<br />
(5569, 123)   0.23011909339432202   (5569, 957)   0.24817919217662862<br />
(5569, 549)   0.28583789844730134   (5569, 863)   0.3026729783085827<br />
(5569, 844)   0.20228305447951195   (5569, 146)   0.2514415602877767<br />
(5569, 595)   0.2463259875380789   (5569, 511)    0.3091904754885042<br />
(5569, 230)   0.2872728684768659   (5569, 638)    0.34151390143548765<br />
(5569, 83)    0.3464271621701711   (5570, 370)    0.4199910200421362<br />
(5570, 46)    0.48234172093857797   (5570, 317)   0.4171646676697801<br />
(5570, 281)   0.6456993475093024   (5572, 282)    0.25540827228532487<br />
(5572, 385)   0.36945842040023935   (5572, 448)   0.25540827228532487<br />
(5572, 931)   0.3031800542518209   (5572, 192)    0.29866989620926737<br />
(5572, 303)   0.43990016711221736   (5572, 87)    0.45211284173737176<br />
(5572, 332)   0.3924202767503492   (5573, 866)    1.0</p>
</blockquote>
<p>I would be more than happy if someone can explain about the output.</p>
",Vectorization & Embeddings,confused return result tfidfvectorizer fit transform wanted learn nlp came across piece code wa confused outcome result printed familiar tfidf could understand number mean output would happy someone explain output
Extracting features from list of strings,"<p>I have list of strings and a strings that look like this :</p>
…
        reduce_lr = ReduceLROnPlateau(
            monitor=""val_loss"", factor=0.5, patience=2, min_lr=0.000001
        )
        history = model.fit(
            X_train_indices,
            Y_train_oh,
            batch_size=2048,
            epochs=5,
            validation_split=0.1,
            shuffle=True,
            callbacks=[checkpoint, reduce_lr],
        )

</code></pre>

<pre><code>_________________________________________________________________
Layer (type)                 Output Shape              Param #   
=================================================================
embedding_10 (Embedding)     (None, 54, 300)           22592100  
_________________________________________________________________
lstm_18 (LSTM)               (None, 54, 256)           570368    
_________________________________________________________________
lstm_19 (LSTM)               (None, 54, 256)           525312    
_________________________________________________________________
lstm_20 (LSTM)               (None, 256)               525312    
_________________________________________________________________
dense_7 (Dense)              (None, 198)               50886     
=================================================================
Total params: 24,263,978
Trainable params: 1,671,878
Non-trainable params: 22,592,100
_________________________________________________________________
None
Train on 177278 samples, validate on 19698 samples
Epoch 1/5
177278/177278 [==============================] - 70s 396us/step - loss:     3.3672 - acc: 8.7433e-04 - val_loss: 0.3103 - val_acc: 0.0000e+00
…
pre train model put extra knowledge domain specific feature
How to interpret TfidfVectorizer output,"<p>I am doing sentiment analysis and for feature generation from text, I am using TF-IDF method but I am not able interpret the output.</p>

<p>I have used the TfidfVectorizer function from Sklearn.</p>

<p>I have used the below code:</p>

<p>from sklearn.feature_extraction.text import TfidfVectorizer
tfidf_vectorizer = TfidfVectorizer(max_df=0.90, min_df=2, max_features=1000, stop_words='english')
tfidf = tfidf_vectorizer.fit_transform(combi['tidy_tweet'])</p>

<p>The output is below:</p>

<p>(0, 302)  0.46871135687055143
  (0, 463)  0.5896490179849546
  (0, 738)  0.6577413621857342
  (1, 879)  0.3938403468675415
  (1, 131)  0.6145629375807904
  (1, 600)  0.6835218920644196
  (2, 79)   1.0
  (3, 557)  0.7040384885805177
  (3, 518)  0.44016705593507854
  (3, 888)  0.5572995329862621
  (4, 566)  1.0
  (5, 423)  0.586120951905663
  (5, 858)  0.4743403266916206
  (5, 69)   0.4637175931713698
  (5, 485)  0.4652198168550412
  (6, 121)  0.809676118019697
  (6, 894)  0.5868769751051355
  (7, 749)  0.47546741144240784
  (7, 992)  0.40382612331421974
  (7, 283)  0.6221668428341786
  (7, 883)  0.20713435439054187
  (7, 393)  0.22953868678391207
  (7, 432)  0.29836739781603</p>

<p>I can understand that the last column is TF-IDF value but what are the other columns .</p>
",Vectorization & Embeddings,interpret tfidfvectorizer output sentiment analysis feature generation text using tf idf method able interpret output used tfidfvectorizer function sklearn used code sklearn feature extraction text import tfidfvectorizer tfidf vectorizer tfidfvectorizer max df min df max feature stop word english tfidf tfidf vectorizer fit transform combi tidy tweet output understand last column tf idf value column
…
model_glove.add(Embedding(vocabulary_size, 100, input_length=50, weights=[embedding_matrix], trainable=False))
model_glove.add(Dropout(0.5))
model_glove.add(Conv1D(64, 5, activation='relu')) 
model_glove.add(MaxPooling1D(pool_size=4))
model_glove.add(LSTM(100))
model_glove.add(Dense(3, activation='softmax'))
model_glove.compile(loss='categorical_crossentropy', optimizer='adam', metrics=['accuracy'])
print(model_glove.summary())
</code></pre>

<p>I get </p>

<pre><code>_________________________________________________________________
Layer (type)                 Output Shape              Param #   
=================================================================
embedding_7 (Embedding)      (None, 50, 100)           2000000   
_________________________________________________________________
dropout_7 (Dropout)          (None, 50, 100)           0         
_________________________________________________________________
conv1d_7 (Conv1D)            (None, 46, 64)            32064     
_________________________________________________________________
max_pooling1d_7 (MaxPooling1 (None, 11, 64)            0         
_________________________________________________________________
lstm_7 (LSTM)                (None, 100)               66000     
_________________________________________________________________
dense_7 (Dense)              (None, 3)                 303       
=================================================================
Total params: 2,098,367
Trainable params: 98,367
Non-trainable params: 2,000,000
_________________________________________________________________
</code></pre>

<p>The input to the above architecture will be the training data</p>

<pre><code>array([[    0,     0,     0, ...,  4867,    22,   340],
       [    0,     0,     0, ...,    12,   327,  2301],
…
<p><strong>Objective:</strong> I want to do the same for short texts. Tweets specifically! I want to cluster them together based on their semantics using <a href=""https://nlp.stanford.edu/projects/glove/"" rel=""nofollow noreferrer"">pre-trained GloVe embeddings</a>.</p>

<p>What I am planning to do is create a CNN encoder and a CNN decoder as a start, before moving on to LSTMs/GRUs.</p>

<p><strong>Problem:</strong> 
~~~<em>What should be the correct loss? How do I implement it in Keras?</em>~~~ </p>

<p>This is how my KERAS model looks like</p>

<p>INPUT_TWEET (Word indexes) >> EMBEDDING LAYER >> CNN_ENCODER >> BOTTLENECK >> CNN_DECODER >> OUTPUT_TWEET (Word indexes)</p>

<pre><code>Layer (type)                 Output Shape              Param #   
-----------------------------------------------------------------
Input_Layer (InputLayer)     (None, 64)                0         
embedding_1 (Embedding)      (None, 64, 200)           3299400   
enc_DO_0_layer (Dropout)     (None, 64, 200)           0         
enc_C_1 (Conv1D)             (None, 64, 16)            9616      
enc_MP_1 (MaxPooling1D)      (None, 32, 16)            0         
enc_C_2 (Conv1D)             (None, 32, 8)             392       
enc_MP_2 (MaxPooling1D)      (None, 16, 8)             0         
enc_C_3 (Conv1D)             (None, 16, 8)             200       
enc_MP_3 (MaxPooling1D)      (None, 8, 8)              0         
***bottleneck (Flatten)***   (None, 64)                0         
reshape_2 (Reshape)          (None, 8, 8)              0         
dec_C_1 (Conv1D)             (None, 8, 8)              200       
dec_UpS_1 (UpSampling1D)     (None, 16, 8)             0         
dec_C_2 (Conv1D)             (None, 16, 8)             200       
dec_UpS_2 (UpSampling1D)     (None, 32, 8)             0         
dec_C_3 (Conv1D)             (None, 32, 16)            400       
dec_UpS_3 (UpSampling1D)     (None, 64, 16)            0         
conv1d_2 (Conv1D)            (None, 64, 200)           9800      
dense_2 (Dense)              (None, 64, 1)             201       
flatten_2 (Flatten)          (None, 64)                0         
-----------------------------------------------------------------
</code></pre>

<p>This is clearly wrong because it tries to minimize the MSE loss between the Input and the Output (word indexes), where I think it should do it in the embedding layers (embedding_1 and conv1d_2).</p>

<p>Now how do I do it? Does it make sense? Is there a way to do this in Keras? Please check my code below:</p>
…
representation, processing, storage, communication of,
and access to information, whether such information is encoded
as bits in a computer memory or transcribed in genes and
protein structures in a biological cell.'''
         #anotherone
'''A computer scientist specializes in the theory of
computation and the design of computational systems''']

vectorizer = CountVectorizer(analyzer='word')

X = vectorizer.fit_transform(corpus)

print X
</code></pre>

<p>The problem is that i dont understand the meaning of the output, i dont see any relation with the text and the matrix that is returned by the vectorizer:</p>

<pre><code>  (0, 12)   3
  (0, 33)   1
  (0, 20)   3
  (0, 45)   7
  (0, 34)   1
  (0, 2)    6
  (0, 28)   1
  (0, 4)    1
  (0, 47)   2
  (0, 10)   2
  (0, 22)   1
  (0, 3)    1
  (0, 21)   1
  (0, 42)   1
  (0, 40)   1
  (0, 26)   5
  (0, 16)   1
  (0, 38)   1
  (0, 15)   1
  (0, 23)   1
  (0, 25)   1
  (0, 29)   1
  (0, 44)   1
  (0, 49)   1
  (0, 1)    1
  : :
  (0, 30)   1
  (0, 37)   1
  (0, 9)    1
  (0, 0)    1
  (0, 19)   2
  (0, 50)   1
  (0, 41)   1
  (0, 14)   1
  (0, 5)    1
  (0, 7)    1
  (0, 18)   4
  (0, 24)   1
  (0, 27)   1
  (0, 48)   1
  (0, 17)   1
  (0, 31)   1
  (0, 39)   1
  (0, 6)    1
  (0, 8)    1
  (0, 35)   1
  (0, 36)   1
  (0, 46)   1
  (0, 13)   1
  (0, 11)   1
  (0, 43)   1
</code></pre>

<p>Also i dont understand what's happening with the output when i use the <code>toarray()</code> method:</p>

<pre><code>print X.toarray()
</code></pre>

<p>What exactly means the output and what relation has with the corpus?:</p>

<pre><code>[[1 1 6 1 1 1 1 1 1 1 2 1 3 1 1 1 1 1 4 2 3 1 1 1 1 1 5 1 1 1 1 1 1 1 1 1 1
  1 1 1 1 1 1 1 1 7 1 2 1 1 1]]
</code></pre>
",Vectorization & E
…
